assets/wildlife_health_model.tflite (tflite, 9232 bytes, 8 tensors)

arith.constant f4 [64, 11]
0	0xbdb6348b	-0.088967405
1	0x3ec5f71c	0.38665092
2	0x3cded794	0.027202405
3	0xbd084b72	-0.033275075
4	0xba9ec052	-0.0012111759
5	0xbd04d85f	-0.03243291
6	0x3b3fbca2	0.002925672
7	0x3be7b55f	0.0070711817
8	0x3c2fc881	0.010728956
9	0x3e93364e	0.2875237
10	0x3ead46b1	0.33842996
11	0xbe31a02e	-0.1734626
12	0xbe58458b	-0.21120279
13	0xbe62edbb	-0.22161
14	0xbcb69d3a	-0.022291768
15	0x3aae8487	0.0013314643
16	0xbc1ba19c	-0.00949898
17	0xbcbe1287	-0.023202194
18	0x3d7abdc6	0.06121614
19	0x3d4d65f8	0.050146073
20	0x3f377571	0.71663576
21	0x3f172eb2	0.59055626
22	0xbc80af45	-0.015708575
23	0xbe3096e6	-0.17245063
24	0x3f2e9519	0.68196255
25	0x3d5612c6	0.052263997
26	0xbd3d5165	-0.046220202
27	0x3bec059d	0.0072028176
28	0x3c0bd2e1	0.008534164
29	0xbbfe7087	-0.007764879
30	0xbc9867ab	-0.01860412
31	0x3ebb27f8	0.3655393
32	0xbf5cbfa1	-0.862299
33	0xbca44e68	-0.020056918
34	0xbea2a391	-0.31765416
35	0x3f718c92	0.9435512
36	0x3d248684	0.040167347
37	0x3b5e85ca	0.0033954256
38	0xbbb5bf32	-0.005546474
39	0x3c9f5727	0.019450737
40	0xbc37a359	-0.011208379
41	0xbbaf0b6e	-0.0053419387
42	0xbe0be154	-0.13660175
43	0xbde5c2db	-0.11218806
44	0xbf8ba99d	-1.0911137
45	0xbbb4d1b7	-0.005518164
46	0x3b848d40	0.0040451586
47	0xbb98da07	-0.0046646628
48	0xbc12198f	-0.008917226
49	0xbc0140e2	-0.007889004
50	0x3b037bf0	0.0020062886
51	0xba723028	-0.0009238743
52	0xbc0b175a	-0.008489454
53	0xbc2a882a	-0.010408441
54	0x3b96fcdf	0.0046077813
55	0x3fad99d7	1.3562573
56	0xbcbe8a9b	-0.023259452
57	0xbc2f6fa7	-0.010707772
58	0xbbb28c89	-0.005448882
59	0xbc156d6e	-0.009120328
60	0xbc08df72	-0.008354055
61	0x3adb1d09	0.0016717027
62	0x39b91681	0.00035302716
63	0xbc253906	-0.010084396
64	0xbb6982dc	-0.0035630977
65	0x395b8da0	0.00020938227
66	0x3cf04e85	0.029334316
67	0xbf26737e	-0.6501998
68	0xbd35f3f1	-0.044422094
69	0x3cab8315	0.020936528
70	0x39f7e9af	0.0004728562
71	0xbca43d6e	-0.020048823
72	0xbc8a3263	-0.01686973
73	0x3c87f4da	0.016596247
74	0xbc01fe8b	-0.007934223
75	0xbe61dee9	-0.2205769
76	0xbe9d0d2e	-0.30674118
77	0xbb93f443	-0.0045152023
78	0x3b9d15ea	0.004793872
79	0x3e15da01	0.14633943
80	0xbfae6331	-1.3624021
81	0x3a47818e	0.0007610553
82	0x3c3d2177	0.011543623
83	0x3b3cbea2	0.002880015
84	0xbab2f8ea	-0.0013654504
85	0x3b8f7704	0.0043782014
86	0x3c33e05e	0.010978786
87	0x3aa347bc	0.0012457292
88	0xbe1bbb4e	-0.1520817
89	0xbf242e01	-0.64132696
90	0x3e476cb4	0.1947506
91	0x3cee7330	0.02910766
92	0xbd025bed	-0.03182595
93	0xbd8b7142	-0.068087116
94	0x3d7c49aa	0.06159369
95	0x3c437e54	0.011931974
96	0xbc465c65	-0.0121069895
97	0x3f744fcb	0.95434254
98	0xbe417f01	-0.18896104
99	0xbc55e424	-0.013054881
100	0x3c9d8b65	0.019231508
101	0x3e1463ca	0.14491192
102	0xbfb10e2a	-1.3832448
103	0x3cff45fc	0.0311613
104	0xbc62ae09	-0.0138354385
105	0xbd103d10	-0.035214484
106	0xbc4fb27f	-0.012676834
107	0xbbbc116d	-0.005739382
108	0xbcc65fac	-0.024215542
109	0x3d18f760	0.03734529
110	0xbce586f6	-0.028018456
111	0x3d00c69e	0.031439416
112	0x3f0e8647	0.5567364
113	0xbf440a81	-0.7657853
114	0x3ce32dcc	0.027731799
115	0x3c13c2b1	0.009018586
116	0x3c547923	0.012968334
117	0x3aa52c88	0.0012601772
118	0xba82bee0	-0.0009975098
119	0xbc5a7b1f	-0.013335018
120	0x3d64ac0e	0.055828147
121	0xbe3e875d	-0.18606324
122	0xbf07474c	-0.52843165
123	0x3cf46208	0.029831901
124	0xbd5ffbb2	-0.054683395
125	0xbca81e77	-0.02052234
126	0xbc7fa117	-0.015602372
127	0x3d098869	0.033577356
128	0xbb952328	-0.00455131
129	0xbbf88fba	-0.007585493
130	0xbef6d77d	-0.4821128
131	0x3ef22642	0.47294813
132	0x3fab0d3c	1.3363414
133	0x3b3ac760	0.0028500184
134	0xbbfde204	-0.0077478904
135	0x3b47b0fe	0.0030470486
136	0x3c2a05e0	0.010377377
137	0x3c433490	0.011914387
138	0xbbbb8a86	-0.0057233004
139	0x3beab532	0.0071627134
140	0xbaf5ee81	-0.0018763096
141	0xbba64fa1	-0.0050754105
142	0x3c3b0094	0.011413712
143	0x3d063790	0.032767832
144	0xbf322357	-0.69585174
145	0xbd5234ff	-0.051320072
146	0x3b431326	0.0029766052
147	0xbc71195e	-0.014715521
148	0xbc5f4184	-0.01362646
149	0x3c20b399	0.009808444
150	0x3caa6107	0.02079822
151	0x3d04e252	0.0324424
152	0x3e2b875e	0.16750857
153	0xbeb3d0e3	-0.35120305
154	0x3bac65c5	0.0052611553
155	0x3dcabfc3	0.09899857
156	0x3eae545a	0.3404873
157	0xbbf28500	-0.0074011087
158	0xbc437576	-0.01192986
159	0xbc66fe5b	-0.014098729
160	0x3b7e207a	0.0038776682
161	0xbca2ed4c	-0.019888543
162	0x3b190aa7	0.0023352297
163	0x3db566cc	0.088574976
164	0xbf5e54cc	-0.8684814
165	0x3d0ab6a8	0.0338656
166	0xbe6d9b5f	-0.232038
167	0x3ea4d4e5	0.32193676
168	0x3d0d1c25	0.03445067
169	0x3d1a031e	0.03760063
170	0x3c9cbc9c	0.019132905
171	0x3cfe8645	0.031069884
172	0xbd422684	-0.047400013
173	0x3c3c6f53	0.011501151
174	0xbec36c31	-0.3816848
175	0x3e42e1c8	0.19031441
176	0x3f9e1444	1.2349935
177	0xbc12244b	-0.008919786
178	0xba7f49c0	-0.00097384676
179	0x3b6bdba9	0.0035989082
180	0xbc2f2b24	-0.010691438
181	0x3ca947fe	0.020664211
182	0xbbc080da	-0.0058747353
183	0xbb1c5233	-0.0023852705
184	0xbc38c4c9	-0.011277386
185	0x3c0f63aa	0.008751789
186	0x3c5c4618	0.013444446
187	0xbcd7438d	-0.026277328
188	0xbbb415ee	-0.0054957783
189	0x3f3a06c8	0.726666
190	0xbdd04bc5	-0.10170702
191	0x3c3f3c66	0.011672115
192	0x3cab6ed3	0.020926869
193	0x3b780b81	0.0037848654
194	0xbaa59f29	-0.0012635934
195	0xbbb33e13	-0.0054700463
196	0x3d091e9d	0.03347646
197	0x3a0566fe	0.00050888944
198	0x3da8aacf	0.08235704
199	0x3f487872	0.78308785
200	0xbdaa358d	-0.08310995
201	0xbced2704	-0.028949268
202	0xbc522422	-0.012825998
203	0xbc63f927	-0.013914383
204	0x3c6b78bd	0.014372048
205	0xba027c18	-0.0004977598
206	0xbb576b56	-0.0032870374
207	0xbdbe4582	-0.09290601
208	0xbe0aece7	-0.13566934
209	0xbc41b852	-0.011823731
210	0xbbf92da5	-0.007604318
211	0xbffafe6d	-1.9608895
212	0x3b399ef2	0.0028323499
213	0x3b1ed4c9	0.0024235717
214	0xbbd12eb6	-0.006383742
215	0x3bc0d9d4	0.005885342
216	0xbbeb7f5c	-0.0071868133
217	0xba9e31cd	-0.0012069285
218	0x3b3bd777	0.0028662363
219	0x3bdf5d9a	0.006816578
220	0x3c83fe74	0.016112544
221	0xbe61898c	-0.22025126
222	0xbed5c9d0	-0.41755533
223	0x3d5d1377	0.05397364
224	0xbcbe8ed7	-0.02326147
225	0x3c9c8433	0.019106006
226	0x3bc0bf40	0.005882174
227	0x3bc05244	0.005869182
228	0x3d88ae75	0.066739
229	0xbe66c4f5	-0.2253607
230	0x3f646b66	0.89226377
231	0xbb34c0d1	-0.0027580748
232	0xbc83bf55	-0.016082445
233	0xc0065240	-2.0987701
234	0x3b937156	0.0044995947
235	0xbb736b25	-0.003714272
236	0xbbe23696	-0.00690348
237	0x3c603072	0.013683425
238	0xbabfd3b4	-0.0014635236
239	0xba14550a	-0.0005658424
240	0x3c07a8bf	0.008279978
241	0x3a9e5835	0.0012080731
242	0xbe2a550c	-0.16634005
243	0x3ef26818	0.47345042
244	0xbaa9bc5d	-0.0012949813
245	0xbc8d4f46	-0.017249715
246	0x3bd23859	0.0064154086
247	0x3c866b94	0.01640872
248	0xbc53250b	-0.01288725
249	0xbce89ca5	-0.028395006
250	0xbb976c26	-0.0046210466
251	0x3ec73b7a	0.38912565
252	0x3ef342b2	0.47511822
253	0x3f9aae6a	1.2084477
254	0xbc809f1c	-0.01570087
255	0xbb08f1fb	-0.0020896185

arith.constant1 f4 [3]
0	0x3f230895	0.6368497
1	0xbf8bf84e	-1.0935152
2	0xbe826ac6	-0.25472087

arith.constant2 f4 [4]
0	0x3cf2b7bd	0.029628629
1	0xbb8c8b3e	-0.00428906
2	0xbed2fe58	-0.41209674
3	0x3eb068ff	0.34455106

arith.constant3 f4 [64]
0	0x3e7f1e0f	0.2491381
1	0xbf4e9613	-0.80697745
2	0xbe85b677	-0.26115772
3	0xbfa9d848	-1.3269129
4	0x3f38a564	0.72127366
5	0xbf59cba2	-0.85076344
6	0x3f4449dd	0.76675206
7	0xbf6d37ba	-0.92663157
8	0xbd3c845a	-0.046024658
9	0xbf5f7604	-0.8728945
10	0xbf02b02b	-0.5105006
11	0xbf25db57	-0.6478781
12	0xbf5847e7	-0.84484714
13	0x3ee85ab0	0.4538169
14	0xbf76d011	-0.96411234
15	0x3ed6fa3f	0.41987798
16	0xbf476421	-0.7788716
17	0x3f358d09	0.7091833
18	0x3e0b4dc6	0.13603887
19	0xbe8c1099	-0.27356413
20	0xbf2ae66c	-0.66757846
21	0xbe98395e	-0.29731268
22	0x3e02dc29	0.12779297
23	0xbf445fa1	-0.7670842
24	0xbfaf1675	-1.3678728
25	0xbfa6e8d6	-1.3039806
26	0xbf478ae7	-0.77946323
27	0xbea0e262	-0.31422716
28	0xbf70416f	-0.93849844
29	0xbf46a390	-0.77593327
30	0x3f400eef	0.75022787
31	0xbfb23bb8	-1.3924475
32	0xbf3cd2c8	-0.73759127
33	0xbf596822	-0.8492452
34	0x3e80b830	0.25140524
35	0xbf46e21b	-0.7768876
36	0xbeef750c	-0.46768987
37	0xbf8643a1	-1.0489389
38	0xbe8e1a4b	-0.27754435
39	0xbe9d25ee	-0.30693
40	0x3f1bd413	0.60870475
41	0xbe8112c9	-0.25209644
42	0x3f5ae24b	0.85501546
43	0xbe6f6b9d	-0.23380895
44	0xbfa5771c	-1.2926974
45	0xbee2d745	-0.44304863
46	0xbf5e8027	-0.86914295
47	0xbe96f370	-0.29482603
48	0x3f3cabae	0.7369946
49	0xbf4379a6	-0.76357496
50	0x3e24917a	0.1607112
51	0x3f323d2c	0.6962459
52	0x3f31aa96	0.6940092
53	0xbf52cfe8	-0.8234849
54	0xbf028917	-0.5099043
55	0x3d977cb2	0.073968306
56	0xbf77fbbc	-0.9686849
57	0x3e318561	0.17336036
58	0xbf759987	-0.9593739
59	0x3da5cd72	0.08095826
60	0xbf1e0a24	-0.61734223
61	0xbf2a81a8	-0.6660409
62	0xbe969a75	-0.29414716
63	0x3e197a06	0.14987954

arith.constant4 f4 [32]
0	0x3d07e4f3	0.033177327
1	0x3ee2af1a	0.44274217
2	0x3ec29165	0.38001552
3	0xbf2764a4	-0.6538794
4	0xbec6bd82	-0.38816458
5	0x3ed714a6	0.4200794
6	0x3f2c3bca	0.6727873
7	0x3f0be59b	0.54647225
8	0x3f9b8a06	1.2151496
9	0x3f007954	0.5018513
10	0x3f3643b7	0.71197075
11	0x3efc31b3	0.49256667
12	0x3f7f5788	0.9974294
13	0x3f853687	1.0407265
14	0x3f2a303e	0.6647986
15	0x3ebaa1fa	0.36451703
16	0xbe54831b	-0.20753138
17	0xbfb1c95b	-1.3889574
18	0x3f574019	0.8408218
19	0xbe45ece7	-0.19328652
20	0x3da53e94	0.080685765
21	0x3f0a7ca1	0.5409642
22	0x3f69fd3c	0.9140203
23	0xbecbf3f5	-0.39834562
24	0xbf3c32fb	-0.7351529
25	0x3e8a4205	0.27003494
26	0xbe888528	-0.2666409
27	0x3da37ea9	0.07983143
28	0xbeb46518	-0.35233378
29	0x3f2ddadd	0.67912084
30	0x3ee79a44	0.45234883
31	0x3cb313d7	0.021860046

arith.constant5 f4 [3, 32]
0	0xbedb31b4	-0.42811358
1	0xbd880636	-0.0664181
2	0xbd18df7d	-0.03732251
3	0xbf07e073	-0.5307686
4	0x3dc10e6e	0.0942658
5	0xbe1c70ba	-0.15277377
6	0x3e2cd9c5	0.16879947
7	0xbea8e42d	-0.32986584
8	0x3e7ca737	0.24673162
9	0xbccd9767	-0.025096608
10	0x3e3c9b57	0.18418632
11	0x3df43285	0.11923698
12	0xbe5815c3	-0.21102051
13	0xbdda764d	-0.10667095
14	0xbe794e2c	-0.24346226
15	0xbdb6863e	-0.089123234
16	0xbdf7eb20	-0.121053934
17	0xbf6818e0	-0.90662956
18	0xbed2c682	-0.41167074
19	0xbf0820e7	-0.53175205
20	0x3da1eddc	0.07906696
21	0x3e3d317e	0.18475911
22	0x3e1edbbd	0.15513511
23	0xbd150907	-0.036385562
24	0xbe5c4b2b	-0.2151305
25	0x3e6eb4e3	0.2331119
26	0x3efad639	0.48991564
27	0xbe24e3ec	-0.1610257
28	0xbe3802de	-0.17969844
29	0xbdc07543	-0.09397366
30	0xbdcb8754	-0.09937921
31	0x3e0a6e76	0.135187
32	0x3f4689fb	0.7755429
33	0x3e0086be	0.125514
34	0xbeaa3e09	-0.33250454
35	0x3f35fcd6	0.7108892
36	0x3e1dd8a3	0.15414672
37	0xbe60ce41	-0.2195368
38	0xbed44b4c	-0.41463697
39	0xbea219f6	-0.31660432
40	0xbf285cc4	-0.6576655
41	0x3db0e512	0.08637442
42	0x3d54fd32	0.05199928
43	0x3e91bbdd	0.2846364
44	0xbef17db8	-0.47166228
45	0xbf2ff4e0	-0.68733025
46	0xbf1feb42	-0.6246835
47	0x3df2ef64	0.118620664
48	0xbe8a1514	-0.26969206
49	0xc1224206	-10.141119
50	0xbf1bbfeb	-0.6083972
51	0xbf4f7c0e	-0.8104867
52	0xbdc22268	-0.09479219
53	0xbed2e3c6	-0.41189402
54	0x3d0202ad	0.031740833
55	0xbf44cc4f	-0.7687425
56	0x3e0de403	0.13856511
57	0x3d9aa54e	0.075510606
58	0x3d548ad6	0.051890217
59	0xbd09b936	-0.033623897
60	0x3f879f82	1.0595553
61	0x3df45154	0.119295746
62	0x3e892f8c	0.26794088
63	0x3f016d03	0.50556964
64	0x3ea6f1c7	0.32606336
65	0xbea56803	-0.32305917
66	0x3e81a243	0.25319108
67	0xbdd4bc52	-0.10387482
68	0xbedf57bd	-0.43621626
69	0xbe9cb4b5	-0.3060662
70	0xbe8e1945	-0.27753654
71	0xbde70c12	-0.11281599
72	0xbe38abe6	-0.18034324
73	0xbbdc4710	-0.0067223385
74	0xbd8a9b0f	-0.06767856
75	0xbf25a0ef	-0.6469869
76	0xbdd1f633	-0.10252037
77	0xbe30af78	-0.17254436
78	0xbe41826e	-0.18897411
79	0xbda252c2	-0.07925941
80	0x3e84dc2a	0.25949222
81	0x3f91a875	1.1379534
82	0xbc54cb18	-0.012987874
83	0x3f85c027	1.0449265
84	0xbd99569c	-0.074872226
85	0x3e829203	0.25502023
86	0x3e3099ca	0.17246166
87	0x3e7ef8b2	0.24899557
88	0xbe673578	-0.2257899
89	0xbe1053dc	-0.1409449
90	0xbf459d92	-0.7719356
91	0x3f20076f	0.6251134
92	0xbe4d5842	-0.20053199
93	0x3d0d812e	0.034547023
94	0xbcaf6488	-0.021410242
95	0xbeabca6b	-0.3355287

arith.constant6 f4 [4, 32]
0	0x3eb2f2f5	0.34950987
1	0x3f2c5094	0.6731045
2	0x3ec3f818	0.38275218
3	0xbf21d3b7	-0.63213676
4	0x3d9c0ac0	0.07619238
5	0x3ee23e4f	0.44188163
6	0x3e5e77e8	0.21725428
7	0x3f6921dd	0.91067296
8	0xbde54a50	-0.111958146
9	0xbf634b18	-0.8878646
10	0x3f6fa1d8	0.9360633
11	0x3eb71952	0.35761505
12	0x3e9d2e58	0.3069942
13	0xbf28f96b	-0.6600558
14	0xbf029c41	-0.51019675
15	0xbf8a884d	-1.0822846
16	0x3f92ba50	1.1463108
17	0xbebe0633	-0.37114105
18	0x3ce47597	0.027888102
19	0xbd1b6230	-0.037935436
20	0xbd40f94f	-0.04711276
21	0x3deebad2	0.11656727
22	0xbebc39c9	-0.36762837
23	0xbd131eca	-0.035918035
24	0x3f2dece8	0.67939615
25	0xc03d32da	-2.9562287
26	0xbf22bbc6	-0.6356777
27	0xbf201e12	-0.62545884
28	0xbde4a62a	-0.11164506
29	0xc0768fce	-3.8525271
30	0x3e7cb771	0.24679352
31	0x3ed991bd	0.42494002
32	0xbe69ffa7	-0.2285143
33	0x3f34da38	0.70645475
34	0xbfccaee7	-1.5990876
35	0xbe38927c	-0.1802463
36	0xbf3aac1f	-0.72918886
37	0xbeb0af59	-0.3450878
38	0xbf0ff825	-0.56238014
39	0x3d495f9c	0.049163446
40	0xbe805e60	-0.25072002
41	0xbf8bf88d	-1.0935227
42	0x3f12e84f	0.57385725
43	0x3de440c2	0.11145164
44	0x3ea8a3dc	0.32937515
45	0x3ea81d2c	0.32834756
46	0xbf3c6b45	-0.7360118
47	0x3c0af3f7	0.008481017
48	0xbe02a42e	-0.12757942
49	0x3e39ac48	0.18132126
50	0x3def7e6f	0.11694037
51	0x3d659991	0.056054655
52	0xbfa312a7	-1.2740067
53	0x3bd51521	0.006502763
54	0x3e9d3e83	0.30711755
55	0xbf0d9a69	-0.55313736
56	0xbfc6f177	-1.5542439
57	0x3fc3d4d1	1.5299321
58	0xbef0aa89	-0.47005108
59	0x3f1c2618	0.60995626
60	0xbd098de7	-0.033582594
61	0x403807ec	2.8754835
62	0x3e4e8019	0.20166053
63	0xbec9b3fa	-0.39395124
64	0xbed25803	-0.41082773
65	0xc01fbb82	-2.4958196
66	0x3f279030	0.6545439
67	0x3fb8286a	1.4387333
68	0x3ef859dc	0.48506057
69	0xbfc2ffb4	-1.5234284
70	0x3ea6e0f1	0.32593492
71	0xb98d26ae	-0.00026922434
72	0xbdbc6e76	-0.09200756
73	0xbf7b9029	-0.98266846
74	0xbdcb008a	-0.09912212
75	0x3dc041f5	0.0938758
76	0xbfdffd81	-1.7499238
77	0xc004acb9	-2.0730422
78	0xbe3beeea	-0.18352857
79	0xbef801ba	-0.48438817
80	0xc0365641	-2.8490145
81	0xbe93131c	-0.28725517
82	0xbf5a6782	-0.8531419
83	0xbe5330b7	-0.20624052
84	0x3f3eb7a4	0.74498963
85	0x3ea7b633	0.32756194
86	0xc08100f6	-4.0313673
87	0x3f326777	0.69689125
88	0x3e40cb29	0.188275
89	0xc02cf74b	-2.7025936
90	0xc0590feb	-3.3915966
91	0xc0a69258	-5.205364
92	0x3f052fb1	0.52025896
93	0xc02544b5	-2.5823185
94	0xc02dc37f	-2.7150571
95	0xbec870ad	-0.39148465
96	0x3e613304	0.21992117
97	0x3f1a2c7a	0.60224116
98	0xbc744550	-0.0149091035
99	0xbee3d0cd	-0.4449524
100	0xbd60e664	-0.054907218
101	0x3ddb598a	0.107104376
102	0xbeb86923	-0.36017713
103	0xc008e6f2	-2.1390958
104	0xbd93fc0a	-0.07225807
105	0x3fc9c475	1.5763079
106	0xbfff90a4	-1.9966016
107	0x3eab47ee	0.33453315
108	0x3dfe8d55	0.12429301
109	0x3f427acd	0.7596863
110	0x3f4cde3c	0.800266
111	0x3fae2d77	1.3607625
112	0xbe51d01c	-0.20489544
113	0x3daabd32	0.083368674
114	0x3d54eef3	0.051985692
115	0xbb57e38c	-0.0032942025
116	0xbf369270	-0.71317196
117	0xbecbf274	-0.39833415
118	0x3e7edcf0	0.24888968
119	0xbf37c2c2	-0.7178155
120	0xbf5ef8e6	-0.8709854
121	0x3ebd6b0e	0.3699574
122	0x3edd5ef8	0.43236518
123	0x3c919483	0.017771011
124	0xbf58b8bf	-0.846569
125	0xbedc12a1	-0.42982963
126	0x3e1c0107	0.15234767
127	0x3e40e76d	0.18838282

tfl.pseudo_qconst i1 [32, 64]
0	0x16	22
1	0x1c	28
2	0xfc	-4
3	0x2b	43
4	0xf6	-10
5	0x03	3
6	0xde	-34
7	0x02	2
8	0x13	19
9	0x03	3
10	0xfc	-4
11	0x00	0
12	0x04	4
13	0xdf	-33
14	0x04	4
15	0xff	-1
16	0x00	0
17	0x02	2
18	0x18	24
19	0x01	1
20	0x03	3
21	0x00	0
22	0x1a	26
23	0x04	4
24	0x40	64
25	0x36	54
26	0xf8	-8
27	0x01	1
28	0x00	0
29	0x04	4
30	0xfd	-3
31	0x2f	47
32	0xf6	-10
33	0x02	2
34	0xe0	-32
35	0xff	-1
36	0xed	-19
37	0xc7	-57
38	0xfd	-3
39	0x0d	13
40	0xfd	-3
41	0x0c	12
42	0x05	5
43	0x15	21
44	0x81	-127
45	0xeb	-21
46	0x03	3
47	0xfe	-2
48	0x00	0
49	0x00	0
50	0x03	3
51	0xfa	-6
52	0xf9	-7
53	0x02	2
54	0xf9	-7
55	0x0d	13
56	0x10	16
57	0xf9	-7
58	0xf8	-8
59	0xfc	-4
60	0x25	37
61	0xfb	-5
62	0xff	-1
63	0x06	6
64	0x02	2
65	0x02	2
66	0xaf	-81
67	0x13	19
68	0x01	1
69	0x01	1
70	0xfe	-2
71	0x9e	-98
72	0xaa	-86
73	0x93	-109
74	0xdf	-33
75	0xf8	-8
76	0x00	0
77	0xf8	-8
78	0xc8	-56
79	0x08	8
80	0xfd	-3
81	0x00	0
82	0x02	2
83	0x03	3
84	0x06	6
85	0x03	3
86	0x00	0
87	0x01	1
88	0x8e	-114
89	0x87	-121
90	0x07	7
91	0x06	6
92	0x8c	-116
93	0xfd	-3
94	0xff	-1
95	0x91	-111
96	0x07	7
97	0x81	-127
98	0x02	2
99	0xfe	-2
100	0xe0	-32
101	0x11	17
102	0x01	1
103	0xf9	-7
104	0x04	4
105	0xf4	-12
106	0xfe	-2
107	0xf3	-13
108	0x35	53
109	0xe3	-29
110	0x8d	-115
111	0x03	3
112	0xf8	-8
113	0xc0	-64
114	0xf7	-9
115	0x02	2
116	0xff	-1
117	0xb5	-75
118	0xfe	-2
119	0x03	3
120	0xb8	-72
121	0xef	-17
122	0xc3	-61
123	0xfc	-4
124	0xe8	-24
125	0x01	1
126	0x03	3
127	0x0b	11
128	0x04	4
129	0xfd	-3
130	0x18	24
131	0xbd	-67
132	0x0a	10
133	0x1c	28
134	0x0f	15
135	0x20	32
136	0x14	20
137	0x1a	26
138	0xfc	-4
139	0xf8	-8
140	0x17	23
141	0x15	21
142	0x7f	127
143	0x04	4
144	0x02	2
145	0x02	2
146	0xfb	-5
147	0x18	24
148	0xe0	-32
149	0x22	34
150	0xff	-1
151	0x07	7
152	0x3d	61
153	0x3e	62
154	0x04	4
155	0x1b	27
156	0x24	36
157	0x18	24
158	0x02	2
159	0x45	69
160	0x06	6
161	0x27	39
162	0xfe	-2
163	0x18	24
164	0x23	35
165	0x0c	12
166	0x1d	29
167	0xf3	-13
168	0x0b	11
169	0xfa	-6
170	0x02	2
171	0xfb	-5
172	0x1d	29
173	0x1f	31
174	0x21	33
175	0x26	38
176	0x02	2
177	0xff	-1
178	0xfe	-2
179	0x02	2
180	0xfc	-4
181	0x1e	30
182	0x0f	15
183	0x04	4
184	0x07	7
185	0xfd	-3
186	0xe5	-27
187	0xf6	-10
188	0x0d	13
189	0x20	32
190	0x0e	14
191	0x05	5
192	0xfc	-4
193	0x12	18
194	0x35	53
195	0x2d	45
196	0x00	0
197	0x00	0
198	0xfd	-3
199	0x01	1
200	0xec	-20
201	0xfe	-2
202	0x03	3
203	0x08	8
204	0xf6	-10
205	0xf9	-7
206	0x7f	127
207	0x00	0
208	0x0b	11
209	0xfd	-3
210	0xfc	-4
211	0xfc	-4
212	0x18	24
213	0xfd	-3
214	0xff	-1
215	0xfa	-6
216	0x52	82
217	0x4c	76
218	0xf3	-13
219	0x31	49
220	0x02	2
221	0xfa	-6
222	0xff	-1
223	0x49	73
224	0xf8	-8
225	0x01	1
226	0x03	3
227	0xfa	-6
228	0x0c	12
229	0xd7	-41
230	0xfd	-3
231	0x02	2
232	0x01	1
233	0x05	5
234	0xfb	-5
235	0x00	0
236	0x1b	27
237	0x0f	15
238	0xff	-1
239	0xfc	-4
240	0xfc	-4
241	0x1e	30
242	0x00	0
243	0xff	-1
244	0xfe	-2
245	0x00	0
246	0xfa	-6
247	0x02	2
248	0x56	86
249	0x07	7
250	0x2b	43
251	0x0a	10
252	0xc5	-59
253	0xf5	-11
254	0xfd	-3
255	0x03	3
